lab_04/models_fmnist/fashion_mnist_model_epoch_19.pth (torch, 339098 bytes, 6 tensors)

linear1.weight f4 [100, 784]
0	0xbac0aed0	-0.0014700536
1	0x3c98a3bc	0.018632762
2	0x3cc023e9	0.023454623
3	0x3cb14ea1	0.021643938
4	0x3c26d75d	0.010183183
5	0xbd00bc9c	-0.031429872
6	0x3c6f11cb	0.0145916445
7	0xbc0e0b50	-0.008669689
8	0x3d0cc6c4	0.034369245
9	0xbbaf1750	-0.0053433552
10	0xbc5ac1ab	-0.013351838
11	0x3c48e82f	0.012262388
12	0x3d01851f	0.031621095
13	0xbce5e22e	-0.028061952
14	0x3cb701b1	0.022339674
15	0xbcf6cf04	-0.03012801
16	0xbb8c5b41	-0.0042833393
17	0xbafca51f	-0.0019275284
18	0xbc6d701f	-0.014492064
19	0x3ba53221	0.005041376
20	0xbd0df153	-0.034653973
21	0xbcaf5742	-0.021403912
22	0x3a578a36	0.0008222194
23	0xbc047eca	-0.0080868695
24	0x3ccb150d	0.024790311
25	0x3b9246e4	0.004464017
26	0x3bf9b5c1	0.0076205437
27	0xbcc204a5	-0.023683855
28	0xbc49b769	-0.012311795
29	0xbcb88b26	-0.022527289
30	0x3d0f3feb	0.034973066
31	0xbcd83c88	-0.026396051
32	0x3c968ccd	0.018377686
33	0x3cc18b36	0.023625951
34	0x3ba96151	0.0051690717
35	0xbd081265	-0.033220667
36	0xbc90e05f	-0.017685113
37	0xbc02cca1	-0.007983358
38	0x3c9959ce	0.01871958
39	0xbcbb4ff0	-0.022865266
40	0xbcc610be	-0.024177905
41	0x3ca2ccf8	0.019873127
42	0x3bb88ed7	0.005632262
43	0xbca313b2	-0.019906852
44	0x3cf27f7e	0.029601809
45	0x3c35543a	0.011067444
46	0xbd099661	-0.033590678
47	0x3d08f0ef	0.033432897
48	0xbcab393b	-0.020901313
49	0xbb1893cd	-0.0023281456
50	0xbc0911c4	-0.008366052
51	0xbd0399a8	-0.03212896
52	0xbcb681bb	-0.022278657
53	0xbc04017a	-0.008056993
54	0x3c00403e	0.0078278165
55	0x3ccbdda0	0.024885952
56	0x3b3e2b9d	0.0029017695
57	0xbce7845c	-0.028261356
58	0xbc7121d2	-0.014717536
59	0xbc3250d6	-0.010883531
60	0xbce48bcc	-0.027898692
61	0xbcb0c342	-0.021577481
62	0x3caeea5c	0.021351986
63	0x3a9f10bc	0.0012135725
64	0x3c3294aa	0.010899702
65	0xbcb6ac83	-0.022299057
66	0x3d067e2f	0.03283518
67	0xbcb66889	-0.022266643
68	0x3cf1ea3f	0.029530643
69	0x3c96b275	0.018395642
70	0x3c00ebfa	0.007868761
71	0x3cdb06e5	0.026736686
72	0x3c704fdc	0.014667477
73	0xbcf070c6	-0.02935065
74	0x3be6feb1	0.0070494046
75	0xbc0f2296	-0.008736273
76	0xbb9cb4b8	-0.0047822855
77	0xbc51e621	-0.012811215
78	0x3c0f7532	0.008755969
79	0xbc9a3391	-0.018823417
80	0x3cf14088	0.029449716
81	0x3b330517	0.0027316266
82	0x3ce94e0f	0.028479604
83	0x3c39b119	0.011333727
84	0xbd0a5a29	-0.03377739
85	0xbb999dc1	-0.004687995
86	0xbc281d60	-0.01026091
87	0x3c205c99	0.009787702
88	0x3c531e87	0.012885696
89	0x3d045702	0.03230954
90	0xbcfd2747	-0.030902518
91	0x3d12b5e4	0.035817996
92	0x3cdddf22	0.027083937
93	0xbce52a7e	-0.027974363
94	0xbbaa9164	-0.00520532
95	0x3ce6cf7f	0.028175114
96	0xbcf14b47	-0.02945484
97	0x3cfcd1d5	0.030861774
98	0xbc2fd98a	-0.010733018
99	0x3d0f2f78	0.03495738
100	0xbcf3f457	-0.029779596
101	0xbcc927d4	-0.024555124
102	0x3c6fe615	0.014642258
103	0x3c8690ba	0.016426433
104	0xbbe8195a	-0.0070831003
105	0x3bdbd5ab	0.006708821
106	0xbcb9dfb4	-0.022689678
107	0xbc99fef5	-0.01879833
108	0x3a579671	0.00082240166
109	0x3ca6e7f5	0.020374278
110	0xbb77b1ec	-0.0037795259
111	0xbcc63618	-0.024195716
112	0xbca659b0	-0.020306438
113	0x3c3c19b6	0.011480739
114	0xbd0593e7	-0.032611754
115	0x3c3cce2a	0.011523763
116	0xbb806554	-0.0039183293
117	0xbc74baf9	-0.014937156
118	0x3c5b53f9	0.01338672
119	0xbce51a45	-0.027966628
120	0x3bfa3276	0.00763541
121	0x3d0260b9	0.031830523
122	0xbc4a5a3f	-0.012350618
123	0xbbe3e57b	-0.0069548464
124	0x3cb66262	0.02226371
125	0xbc4b1587	-0.012395269
126	0xbd03af67	-0.0321497
127	0xbce5e63b	-0.028063884
128	0x3cc67a1b	0.024228146
129	0x3b69eb7f	0.0035693345
130	0x3c975571	0.018473359
131	0xbd043378	-0.032275647
132	0xbc1341c6	-0.00898785
133	0xbd04b4c6	-0.03239896
134	0x3b8bcae0	0.004266128
135	0x3ccc4a2a	0.024937708
136	0xbcf489e8	-0.029850915
137	0x3c40196c	0.011724811
138	0xbc9e27c6	-0.019306075
139	0xbcf266d5	-0.02959005
140	0xbb11a1fd	-0.0022221797
141	0xbc1d7b0e	-0.009611858
142	0x3b67e157	0.0035382116
143	0x3d01b015	0.031662066
144	0x3aaf4860	0.001337301
145	0xbc51c459	-0.012803161
146	0xbcb18522	-0.021669928
147	0x3b993d8f	0.004676528
148	0x3bbe8199	0.005813789
149	0x3a9c72cf	0.0011936071
150	0x3c8a3977	0.016873104
151	0xbd0d9adb	-0.03457151
152	0xbce23cf7	-0.02761696
153	0xbc55179b	-0.013006116
154	0x3b0d2555	0.0021537144
155	0xbc0fe488	-0.008782513
156	0xbc34dd99	-0.011039161
157	0xbb68cde8	-0.003552312
158	0xbcc54cbe	-0.024084445
159	0xbcd506bd	-0.02600419
160	0x3b14198d	0.0022598237
161	0x3cc14352	0.023591671
162	0x3bd34572	0.0064474875
163	0x3cecb6e1	0.028895797
164	0xbbfdd179	-0.0077459184
165	0x3ceac60c	0.02865889
166	0xbbafd25c	-0.005365653
167	0xbbe97918	-0.007125031
168	0xbc2d6a48	-0.010584421
169	0x3c9c7831	0.01910028
170	0xbcebc8ba	-0.028782237
171	0x3d08315f	0.03325021
172	0xbd03bcc5	-0.032162447
173	0x3c51b5fd	0.012799737
174	0xbcf4c776	-0.029880267
175	0x3c8617c5	0.016368756
176	0xbc7f49b2	-0.015581535
177	0x3cbeef12	0.023307357
178	0xbd0a16eb	-0.033713263
179	0xbce310fc	-0.02771806
180	0xbc9dbd36	-0.019255262
181	0x3b539402	0.0032284264
182	0x3b49ad51	0.003077347
183	0x3c9c809f	0.0191043
184	0xbc8f2167	-0.017471982
185	0xbd075842	-0.033043154
186	0x3a544543	0.0008097479
187	0xbcae5f7f	-0.02128577
188	0xbc9910d6	-0.018684786
189	0x3bf96ef8	0.0076121055
190	0xbc9a9134	-0.018868066
191	0x3c6584d1	0.014008717
192	0xbc1fa7f5	-0.009744634
193	0x3cf63a48	0.030057088
194	0x3b70aec7	0.003672527
195	0xbc18d34b	-0.00932772
196	0xbd0bb3da	-0.034107067
197	0xbcd638cc	-0.02615013
198	0x3ca98c68	0.020696834
199	0xbd0e24b8	-0.034702986
200	0xbbef1d3b	-0.0072971857
201	0xbc9d081a	-0.019168902
202	0xbc2b61f8	-0.010460369
203	0x3cd0a281	0.025468113
204	0xbc97ffca	-0.018554587
205	0xbcb05877	-0.021526558
206	0x39f97a4b	0.00047584096
207	0xbd03cd06	-0.032177947
208	0x3c84d02d	0.016212547
209	0x3d09b1f9	0.033616994
210	0xbcb54231	-0.02212629
211	0xbd0f34e6	-0.034962557
212	0x3cf936f5	0.030421713
213	0x3c373f60	0.011184543
214	0x3a36e817	0.0006977333
215	0xbce2c9cf	-0.02768412
216	0xbc3b9ca6	-0.011450922
217	0xbcd601a6	-0.026123833
218	0xbb58b9f0	-0.0033069812
219	0x3d08b53d	0.033375967
220	0x3cf09e97	0.029372497
221	0xbc75ca4e	-0.0150018465
222	0xbcc3167f	-0.023814438
223	0xba8e757b	-0.0010868752
224	0x3bfb0590	0.007660575
225	0x3d0a55dc	0.033773288
226	0xbc4b9e56	-0.012427887
227	0x3cfe601e	0.031051692
228	0x3d0fc18f	0.0350967
229	0xbb926ef3	-0.0044687926
230	0x3d0d9e4f	0.034574803
231	0x3cd7e914	0.026356257
232	0xba57693e	-0.00082172814
233	0xbc8a0ddf	-0.016852317
234	0xbcf5c69b	-0.030001929
235	0xbcd36cb9	-0.025808679
236	0x3bf7cfd1	0.0075626154
237	0xbcd1111a	-0.02552085
238	0xbc3965b3	-0.011315751
239	0xbbed5e6f	-0.0072439234
240	0x3ccf5896	0.025310796
241	0x3d0d4595	0.034490187
242	0xbc7e2b27	-0.015513218
243	0x3c9b7407	0.018976225
244	0xbcdedfab	-0.027206263
245	0xba22197b	-0.00061836065
246	0x3b289143	0.0025721348
247	0xbca08c50	-0.019598156
248	0x3c84401c	0.016143851
249	0xbcedd777	-0.029033406
250	0x3c451814	0.012029666
251	0x3d07f28b	0.03319029
252	0x3cd33606	0.025782596
253	0x3b99e385	0.004696312
254	0x3bda5c39	0.006663826
255	0x3bc7367b	0.0060794926

linear1.bias f4 [100]
0	0xbd1b229e	-0.03787481
1	0x3d29c331	0.041445915
2	0xbc862845	-0.016376624
3	0x3d34de42	0.044157274
4	0x3c93a431	0.018022629
5	0x3d063c0b	0.032772105
6	0xbbbbad17	-0.005727421
7	0x3c16ce71	0.009204493
8	0x3c04eeb6	0.008113554
9	0xbab96334	-0.0014143945
10	0xbd098da4	-0.033582345
11	0xbba90842	-0.005158455
12	0x3c26dcbc	0.010184463
13	0xbcec9e46	-0.028884064
14	0x3d227d13	0.03967006
15	0xbd49bd19	-0.049252603
16	0x3d32d1a5	0.043656964
17	0x3c63aac0	0.01389569
18	0x3d32d13d	0.043656576
19	0xbb6bcc16	-0.00359798
20	0x3ced6f29	0.02898367
21	0x3c9235fc	0.017848007
22	0x3d4574dc	0.04820715
23	0x3ca3d552	0.01999918
24	0x3cbd7e19	0.023131417
25	0xbcaeddb2	-0.021345947
26	0xbc31e57a	-0.010857934
27	0xba959e5f	-0.0011414996
28	0x3cf98e8c	0.03046348
29	0xbcf4f0dc	-0.029900007
30	0xbbf79acd	-0.0075562955
31	0x3c12986e	0.008947475
32	0x3c886524	0.01664979
33	0x3c812e3a	0.015769113
34	0xbd019d6b	-0.031644266
35	0x3bb2ceaf	0.0054567675
36	0xbc293402	-0.010327341
37	0x3cbfabd9	0.023397373
38	0x3d41f9ce	0.047357373
39	0x3d799efe	0.060942642
40	0x3cfe6dcc	0.031058215
41	0xbcd0a113	-0.025467431
42	0x3d0dddab	0.034635227
43	0x3d31b3c5	0.043384332
44	0x3c8e325f	0.017358003
45	0x3be5754e	0.007002509
46	0x3bb5df61	0.0055503105
47	0xbcebc830	-0.02878198
48	0x3d81ef81	0.0634451
49	0x3c5400c2	0.012939634
50	0xbc978701	-0.018496992
51	0x3c446c9e	0.011988787
52	0x3c1c8972	0.009554254
53	0x3d24a2e0	0.040194392
54	0x3d15c79d	0.03656732
55	0xbc33225a	-0.010933483
56	0x3cbcdc1b	0.023054173
57	0x3d2682ec	0.0406522
58	0xbd09e0aa	-0.033661522
59	0xbb8f25ec	-0.0043685343
60	0x3ceeb6bf	0.029139875
61	0x3cc3dfa2	0.023910347
62	0x3ca8a086	0.020584356
63	0x3d216293	0.03940065
64	0x3d2cb63c	0.04216598
65	0xbb97fedf	-0.0046385373
66	0xbc599a36	-0.013281396
67	0xbc41f67e	-0.0118385535
68	0xbcb32cfb	-0.021872034
69	0xbb7d8f05	-0.0038689983
70	0xbcafb3bc	-0.021448009
71	0x3cf6b8c2	0.030117396
72	0xbc5f05d1	-0.013612227
73	0x3cf368aa	0.029712994
74	0x3c4df5bf	0.0125707975
75	0x3cfea25b	0.031083276
76	0x3d29d1c1	0.041459803
77	0xbd05a22a	-0.032625355
78	0xbc92944f	-0.017892985
79	0x3c74a43f	0.014931737
80	0x3d6fec0d	0.058574725
81	0x3c738891	0.014864103
82	0xbcb515fc	-0.02210521
83	0x3bc038aa	0.00586613
84	0x3abd472e	0.0014440769
85	0x3d047874	0.032341436
86	0xbc76ef39	-0.015071684
87	0x3b8dfe39	0.004333284
88	0xbc2bfe5f	-0.0104976585
89	0xba991292	-0.0011678508
90	0xbc7aa179	-0.015297287
91	0xbb2d4f36	-0.0026444918
92	0xbc516a3f	-0.012781679
93	0x3c249a3e	0.01004654
94	0xbc67baa2	-0.014143618
95	0x3cc58d0c	0.024115108
96	0xbc55ee43	-0.013057294
97	0x3d40f521	0.047108773
98	0x3ccf6647	0.025317324
99	0xbbdd1fdf	-0.006748184

linear2.weight f4 [50, 100]
0	0xbdb40f0d	-0.08791933
1	0xbd8541e6	-0.0650671
2	0x3dc1d7d7	0.09464996
3	0x3daec279	0.085331865
4	0xbca657e0	-0.020305574
5	0xbd197cc9	-0.03747252
6	0x3dc54898	0.09632987
7	0x3c9c658e	0.019091394
8	0x3d192213	0.03738601
9	0xbdc593dd	-0.09647343
10	0x3d8fa262	0.07013394
11	0x3dd3b496	0.103371784
12	0x3d9689fa	0.07350536
13	0x3de38646	0.11109595
14	0x3d8fbbfa	0.070182756
15	0x3d43d43f	0.047809836
16	0xbdb2740d	-0.08713541
17	0xbda44a81	-0.08022023
18	0x3bcf3e98	0.0063246004
19	0xbd785f14	-0.06063755
20	0xbc96140f	-0.018320112
21	0xbdd9677c	-0.10615441
22	0x3d3d8fd9	0.046279762
23	0xbd8fa436	-0.070137426
24	0xbd91b5b1	-0.07114733
25	0xbdbba282	-0.09161855
26	0xbd1c573c	-0.03816913
27	0xbd7157fc	-0.0589218
28	0x3ca9ef67	0.020744039
29	0x3b9fd0e5	0.004877197
30	0x3d39627a	0.04525993
31	0x3da80e54	0.08205858
32	0xbd91c296	-0.071171924
33	0xbd21586d	-0.03939097
34	0x3d826eb0	0.06368768
35	0xbdacfe03	-0.084468864
36	0xbc88e7c7	-0.016712083
37	0xbd890734	-0.06690827
38	0x3d899282	0.06717397
39	0x3da4043b	0.080086194
40	0x3cfbe3f2	0.030748341
41	0x38fcc880	0.000120536424
42	0x3d9d3394	0.07675853
43	0xbd7fbed3	-0.062437844
44	0xbd9ed974	-0.0775632
45	0x3d6c19be	0.057641737
46	0x3e1c5d1a	0.1526989
47	0xbd9e98ef	-0.077440135
48	0x3ca90dfb	0.02063655
49	0xbd515fe3	-0.051116835
50	0xbda12d30	-0.07869947
51	0x3ce7b263	0.028283304
52	0xbd6f4193	-0.058412146
53	0xbdc1382f	-0.09434544
54	0xbd88d377	-0.06680959
55	0x3d6f5c5f	0.0584377
56	0x3dc3cd99	0.09560699
57	0xbc0e0289	-0.008667597
58	0x3b6fed61	0.0036609995
59	0xbd017ac0	-0.031611204
60	0xbd2b4c91	-0.041821066
61	0xbda4ffb4	-0.08056584
62	0x3dd0b9d0	0.10191691
63	0xbde25c33	-0.11052742
64	0x3b83d1a1	0.0040227924
65	0xbd35eb96	-0.044414125
66	0x3e0ffd55	0.14061482
67	0xbda102be	-0.07861851
68	0xbb96e297	-0.0046046483
69	0x3da6aaad	0.081380226
70	0x3c59eea3	0.013301524
71	0xbb1dc07e	-0.0024071033
72	0x3b89f997	0.0042106616
73	0x3dfd7301	0.12375451
74	0xbd0fbb2e	-0.035090618
75	0xbd780c99	-0.06055889
76	0xbd2cb84d	-0.04216795
77	0x3c888500	0.016664982
78	0xbd88da8c	-0.066823095
79	0x3dbbecd3	0.0917603
80	0x3da7e536	0.081980154
81	0x3d349047	0.044082906
82	0xbd642915	-0.05570324
83	0xbdaa74af	-0.08323037
84	0xbc868d1f	-0.016424714
85	0x3da20010	0.07910168
86	0xbd8e0ef8	-0.06936449
87	0x3ddb6a99	0.10713691
88	0x3da2f15f	0.07956194
89	0xbc1758cf	-0.009237482
90	0xbd948d3c	-0.07253501
91	0xbd7fc882	-0.06244708
92	0xbb8d3a31	-0.0043099155
93	0x3e07b028	0.13250792
94	0x3df0ef70	0.11764419
95	0x3d8481ff	0.06470107
96	0xbd5e6f42	-0.054305322
97	0x3d801aa0	0.06255078
98	0xbc71ad7c	-0.014750835
99	0x3d8231e6	0.063571736
100	0xbd028d59	-0.03187308
101	0x3d0b8009	0.03405765
102	0x3d724c0b	0.05915455
103	0x3d0b5aa2	0.03402198
104	0xbc5f863d	-0.013642845
105	0xbca91e59	-0.020644354
106	0x3c330104	0.010925535
107	0x3d369694	0.044577196
108	0xbb89e555	-0.0042082467
109	0xbd3ab7f8	-0.045585603
110	0x3dbb522b	0.09146532
111	0x3d0a5504	0.033772483
112	0x3c84c986	0.016209375
113	0x3d8091bc	0.062777966
114	0xbe04816d	-0.12939997
115	0x3de53dad	0.11193404
116	0xbcfca0c7	-0.030838383
117	0xbd7a7849	-0.06114987
118	0x3d28aca8	0.041180283
119	0x3caa696a	0.020802218
120	0x3ca6fc79	0.02038406
121	0x3e52b285	0.20575912
122	0xbd7162db	-0.058932167
123	0xbd46a60f	-0.04849821
124	0x3ded48a6	0.11586122
125	0x3d0e46a1	0.034735326
126	0x3e3b9dd3	0.18321924
127	0xbd9e270a	-0.0772229
128	0xbdb6d0f4	-0.089265734
129	0x3cc8ecb5	0.024526933
130	0x3d5fd00d	0.054641772
131	0xbb50b4bf	-0.0031846014
132	0x3d77cc55	0.0604976
133	0x3daa4ab1	0.083150275
134	0xbccbe5a7	-0.02488978
135	0xbd455f34	-0.048186496
136	0xbac8edbf	-0.0015329643
137	0xbd0e4005	-0.034729023
138	0xbde64b7c	-0.11244866
139	0xbd8bf70f	-0.06834232
140	0x3c5e72a2	0.013577135
141	0xbd88079b	-0.06642076
142	0xbdac532c	-0.08414301
143	0xbcb4dfde	-0.022079404
144	0x3dbf1166	0.0932949
145	0x3d3246e8	0.043524653
146	0x3defb0e0	0.11703658
147	0xbd16c412	-0.03680808
148	0x3af82249	0.0018931116
149	0x3d08707e	0.033310406
150	0xbc60e412	-0.013726251
151	0x3dda5169	0.10660059
152	0xbdd0bb4d	-0.10191975
153	0x3dba9a02	0.09111406
154	0xbc489451	-0.012242393
155	0xbd466332	-0.048434444
156	0xbd8c4c33	-0.06850471
157	0x3d16b564	0.03679408
158	0xbc46d0aa	-0.01213471
159	0x3dcb94ab	0.099404655
160	0x3d90e5de	0.07075094
161	0xbcbadb0c	-0.022809528
162	0x3d1adf37	0.03781053
163	0x3d8eed15	0.069788136
164	0x3dde7c20	0.10863519
165	0xbdca41dd	-0.09875844
166	0x3e044a40	0.12918949
167	0xbcd70af4	-0.02625034
168	0x3c501583	0.012700441
169	0xbb1ad691	-0.0023626427
170	0xbd4a132d	-0.049334694
171	0xbdf2a210	-0.11847317
172	0x3dc39979	0.09550757
173	0xbd2aec47	-0.041729238
174	0x3c6b9074	0.014377702
175	0xbd795449	-0.060871396
176	0x3c34d684	0.011037473
177	0x3d7eabb5	0.06217547
178	0xbdbe5c02	-0.09294893
179	0xbd9303de	-0.07178472
180	0xbd6733a2	-0.056445725
181	0x3c68d041	0.014209808
182	0x3d959fe0	0.07305884
183	0xbdd127fc	-0.102127045
184	0x3ded096b	0.11574062
185	0xbc2d735a	-0.010586584
186	0xbda630b7	-0.0811476
187	0xbd5cd819	-0.053917024
188	0x3db7ac48	0.08968407
189	0x3d7c4c16	0.061596
190	0x3d3fc1f5	0.04681583
191	0xbdbddfd7	-0.0927121
192	0xbd755e2f	-0.059904274
193	0xbddeb4b9	-0.10874314
194	0xbc7e0dfe	-0.015506266
195	0x3daf1e51	0.08550704
196	0xbd17d07c	-0.03706406
197	0xbbef0dde	-0.0072953543
198	0x3dc28146	0.09497313
199	0x3cd02986	0.025410425
200	0xbd9436c1	-0.07237006
201	0xbcbc4ce9	-0.022985892
202	0x3c73ae8e	0.01487316
203	0x3bf5a893	0.0074969023
204	0xbbc81246	-0.006105694
205	0xbc9f30a3	-0.019432371
206	0x3d817e7e	0.063229546
207	0xbddfc6d5	-0.10926596
208	0x3e04d03e	0.12970063
209	0x3db51d74	0.08843508
210	0x3d2fa95f	0.042886134
211	0xbd5d4d91	-0.05402905
212	0x3d4fad47	0.05070236
213	0x3dd5a664	0.10432127
214	0x3c842a43	0.016133433
215	0xbd636b74	-0.055522397
216	0x3daf7cb2	0.085687056
217	0x3d9cade1	0.07650352
218	0xbc062504	-0.008187536
219	0xbda2fb43	-0.079580806
220	0xbdd5eb18	-0.10445231
221	0xbdb7be05	-0.0897179
222	0x3d734b9b	0.059398275
223	0x3c0ac430	0.008469626
224	0x3d039868	0.032127768
225	0xbdaaf548	-0.08347565
226	0x3d90a3bb	0.07062479
227	0x3c004c2a	0.007830659
228	0x3e0cc54a	0.13747135
229	0x3d2f68a4	0.042824402
230	0x3c982b70	0.0185754
231	0x3dac2d93	0.0840713
232	0xbd4a7869	-0.04943124
233	0x3d6a82ed	0.057253767
234	0xbdae9747	-0.085249476
235	0x3d84a6b6	0.0647711
236	0x3ba771d9	0.0051100072
237	0x3d6eaf67	0.058272745
238	0xbbce3cd4	-0.0062938724
239	0x3cd127d9	0.025531696
240	0xbcc52b53	-0.02406851
241	0xbd9ec396	-0.07752149
242	0xbc5d573c	-0.013509568
243	0x3ca607d8	0.020267412
244	0xbd9f4b25	-0.077780046
245	0x3dd533d5	0.10410277
246	0x3df5e44c	0.12006435
247	0x3d265099	0.040604208
248	0x3b6a322d	0.0035735474
249	0x3ddd3e9f	0.1080296
250	0x3d96d23e	0.07364319
251	0x3c2e74dc	0.010647979
252	0x3d6ff89e	0.05858671
253	0xbdf59085	-0.119904555
254	0xbb5fc62a	-0.0034145215
255	0x3d256465	0.040378947

linear2.bias f4 [50]
0	0x3c8a1694	0.01685647
1	0x3d14a0f9	0.036286328
2	0xbdad7814	-0.08470169
3	0x3de3bfec	0.111205906
4	0xbd4abdcc	-0.04949741
5	0xbd8df4b8	-0.06931442
6	0x3d06118d	0.03273158
7	0x3d61d8fa	0.055138566
8	0x3d8145d9	0.063121505
9	0x3c05a216	0.00815632
10	0x3e3dd08b	0.18536584
11	0x3dfe1250	0.124058366
12	0x3dba8a1a	0.09108372
13	0xbd664a66	-0.056223296
14	0x3c284e3d	0.01027256
15	0xbd926b26	-0.07149343
16	0x3d6a04cf	0.057133492
17	0xbd564d42	-0.052319773
18	0xbdb4acc8	-0.08822018
19	0x3da19a55	0.078907646
20	0xbd496f87	-0.049178626
21	0x3afd6778	0.0019333204
22	0x3cdb3935	0.026760677
23	0x3dfc997a	0.12333961
24	0x3dac955e	0.08426927
25	0x3db9315a	0.09042616
26	0x3e2f4e00	0.17119598
27	0xba6af274	-0.000896252
28	0xbd113ba5	-0.035457272
29	0xbd53c8c0	-0.051705122
30	0xbd4e2868	-0.050331503
31	0xbd225707	-0.039633777
32	0xbd23d2ae	-0.03999584
33	0xbd1a9de7	-0.037748244
34	0x3c3ba468	0.011452772
35	0x3cf5d4e9	0.03000875
36	0xbd64ccc9	-0.05585936
37	0x3ca7cd19	0.02048354
38	0x3d9e7468	0.077370465
39	0xbdc34d03	-0.09536173
40	0x3d3a4e31	0.045484725
41	0xbb29fab0	-0.0025936775
42	0x3db9f7ee	0.09080492
43	0x3d158394	0.036502436
44	0xbd5212b5	-0.05128737
45	0x3d61a421	0.055088166
46	0xbda06c20	-0.07833123
47	0xbd44fed1	-0.048094574
48	0xbd54e47f	-0.051975723
49	0x3d677e12	0.056516714

linear3.weight f4 [10, 50]
0	0xbdbf9a0d	-0.09355555
1	0xbd005192	-0.03132779
2	0x3e007c67	0.12547456
3	0x3e5a50b2	0.21319845
4	0x3e26092e	0.1621444
5	0x3d99819e	0.07495426
6	0xbd349af4	-0.044093087
7	0xbd10d0f5	-0.035355527
8	0x3de347f3	0.110977076
9	0x3df8df5d	0.12151978
10	0xbe8f700a	-0.28015167
11	0xbdbfc3b2	-0.09363498
12	0x3e5858a9	0.21127571
13	0xbe72d2df	-0.23713253
14	0x3e0b4ae9	0.13602795
15	0xbde5c9d6	-0.11220138
16	0x3e5f8410	0.21827722
17	0xbc7c6cd1	-0.015406803
18	0x3d3719f1	0.044702474
19	0x3db29e3f	0.08721589
20	0x3e375a38	0.1790551
21	0x3d9616bb	0.07328554
22	0xbe271b33	-0.1631897
23	0xbcdaf8d1	-0.026729973
24	0x3dcee3ff	0.101020806
25	0xbcd91849	-0.026500838
26	0xbe48ae4b	-0.19597737
27	0x3a596608	0.0008293097
28	0xbdfbf6dc	-0.12302944
29	0x3ba475dd	0.005018933
30	0xbe78567d	-0.24251743
31	0xbb8f0af0	-0.0043653175
32	0x3dbf9eab	0.093564354
33	0x3d801897	0.0625469
34	0x3e541e3b	0.20714657
35	0x3dc0801c	0.09399435
36	0xbc0643b8	-0.008194856
37	0xbe569692	-0.20955876
38	0xbe3ca287	-0.18421374
39	0xbcc24bcf	-0.023717789
40	0xbde03904	-0.10948375
41	0x3e6a54c5	0.228839
42	0xbdcf2d1d	-0.101160266
43	0xbdc80fc7	-0.09768634
44	0xbd6a2842	-0.0571673
45	0x3d313076	0.043259107
46	0x3de77efa	0.11303516
47	0x3d9f8545	0.07789091
48	0x3e95ad34	0.29233706
49	0xbd7c4cfc	-0.061596856
50	0x3d937875	0.0720071
51	0xbea6ce24	-0.32579148
52	0x3d741873	0.05959363
53	0x3c582e79	0.013194674
54	0x3e2bce2c	0.16777867
55	0xbda46244	-0.08026555
56	0xbdb1bf9e	-0.08679126
57	0xbe799f44	-0.24377161
58	0xbd76590c	-0.060143515
59	0xbd90484a	-0.07045038
60	0x3e3f408f	0.18676971
61	0x3d96b734	0.07359162
62	0xbe23da1d	-0.16001172
63	0x3e9f2ebd	0.31090346
64	0xbdf4867b	-0.119397126
65	0xbdedf0c9	-0.11618192
66	0x3e5053f7	0.2034453
67	0xbd5a192c	-0.053246662
68	0xbd0b50eb	-0.034012716
69	0x3e974ba4	0.29549897
70	0x3d949858	0.0725562
71	0xbe324e45	-0.1741267
72	0xbe1a8020	-0.15087938
73	0x3d528e40	0.05140519
74	0x3e271e52	0.1632016
75	0x3d5e561d	0.054281343
76	0xbe0085fa	-0.12551108
77	0xbe77cb2c	-0.24198598
78	0x3d383212	0.044969626
79	0x3dfd8f98	0.12380904
80	0xbd7335ef	-0.059377607
81	0xbd02ad31	-0.03190345
82	0x3cebec02	0.02879906
83	0x3d471f09	0.04861358
84	0x3ea93bec	0.3305353
85	0xbc293ffa	-0.010330195
86	0x3e2c0b53	0.16801195
87	0xbda7d0fc	-0.081941575
88	0xbd68c8d1	-0.05683214
89	0xbd685ea0	-0.056730866
90	0xbe5dfd5a	-0.21678677
91	0xbc8f0a3e	-0.017460939
92	0x3e8f5266	0.27992553
93	0xbe8d8fea	-0.2764886
94	0x3db98185	0.09057907
95	0xbe6f8340	-0.23389912
96	0xbd903f2a	-0.070432976
97	0xbe7ceb8a	-0.24699226
98	0xbe0387db	-0.12844793
99	0xbe6e0b0d	-0.23246403
100	0xbe16d829	-0.14730896
101	0x3e315dfa	0.17321005
102	0xbe59fc13	-0.21287565
103	0xbe5bb27e	-0.21454808
104	0xbe1d447a	-0.15358153
105	0x3dafc141	0.08581782
106	0x3d800152	0.06250252
107	0xbe12e7df	-0.14346264
108	0x3d055516	0.032551847
109	0x3dbabd97	0.09118193
110	0x3dcdc2cd	0.10046921
111	0xbde8d38a	-0.11368473
112	0x3e3061e5	0.17224844
113	0xbd373b91	-0.04473454
114	0x3e0ecb9b	0.13944857
115	0x3dde7ad5	0.10863272
116	0x3da85cdc	0.082208365
117	0x3e0c6df0	0.13713813
118	0xbe21cbbd	-0.15800376
119	0x3de922b4	0.11383572
120	0xbe1b29be	-0.15152642
121	0x3d1010e1	0.035172347
122	0x3db45c3f	0.08806657
123	0x3db64cab	0.08901342
124	0xbd3c42a0	-0.045961976
125	0x3d215326	0.039385937
126	0xbe42cb02	-0.19022754
127	0x3cef5c04	0.029218681
128	0xbd22c785	-0.039741058
129	0xbd95b9b8	-0.07310814
130	0x3e2d856c	0.16945428
131	0xbdf89749	-0.1213823
132	0x3dfb9620	0.122844934
133	0x3e04ccd9	0.12968768
134	0x3e5553bc	0.20832723
135	0x3e8e950f	0.27848098
136	0xbdffdbb3	-0.12493076
137	0xbe099017	-0.13433872
138	0xbdbda45c	-0.09259865
139	0x3dfbe5a2	0.12299658
140	0x3e5ddb22	0.21665624
141	0x3d8700c4	0.06591943
142	0xbc4d7916	-0.012541076
143	0xbd897d5d	-0.06713364
144	0xbd8ec487	-0.06971078
145	0xbe07494d	-0.13211556
146	0x3df8654d	0.121286966
147	0x3e1eea9f	0.15519188
148	0xbcf64882	-0.030063871
149	0xbe4b9728	-0.1988188
150	0x3e202c40	0.1564188
151	0xbe1117e9	-0.14169277
152	0x3e8855e4	0.2662803
153	0x3e456d11	0.19279887
154	0xbe0e31d0	-0.1388619
155	0x3bb3ff53	0.0054930835
156	0x3dd345ac	0.10316023
157	0xbe1bda14	-0.15219909
158	0x3e82b39e	0.25527662
159	0xbda8d962	-0.082445875
160	0xbc6b46aa	-0.014360109
161	0x3e5dd36c	0.21662682
162	0x3dedab5b	0.11604949
163	0x3e2d42e5	0.1692005
164	0x3d54d61c	0.051962003
165	0xbd58005b	-0.052734714
166	0x3cf10b7b	0.02942442
167	0xbda877f9	-0.08226008
168	0x3d77d84f	0.060509022
169	0xbdb9da35	-0.09074823
170	0xbd6d13a0	-0.057880044
171	0xbddcb6f8	-0.10777086
172	0xbe450c0c	-0.19242877
173	0xbdcc541c	-0.0997698
174	0x3e07b14b	0.13251226
175	0x3e7e61b0	0.24841952
176	0xbe544031	-0.20727612
177	0xbd199b14	-0.03750141
178	0xbe70bbcc	-0.23509139
179	0x3b531cbf	0.003221318
180	0xbd6d00d7	-0.05786213
181	0xbdaabeea	-0.08337195
182	0x3d26e986	0.04075005
183	0x3cb63326	0.022241186
184	0xbd881387	-0.066443495
185	0xbe3b736a	-0.18305746
186	0x3e315d32	0.17320707
187	0xbd6294a2	-0.05531753
188	0x3e08f7e0	0.13375807
189	0xbe219ad2	-0.15781716
190	0xbdf1777d	-0.11790369
191	0xbde6b91e	-0.11265777
192	0x3c390caf	0.011294528
193	0x3db14d43	0.08657315
194	0xbd485fa2	-0.048919328
195	0xbe2e9d4b	-0.1705219
196	0xbd00dc8c	-0.03146033
197	0x3da2eeef	0.07955729
198	0x3e5c354f	0.2150471
199	0xbd077b0d	-0.033076335
200	0x3cc85d34	0.024458505
201	0x3e156f22	0.14593175
202	0x3d212e7e	0.03935098
203	0xbdc7e26e	-0.09759985
204	0xbddc7c3e	-0.10765885
205	0x3e558d62	0.20854715
206	0x3d664f31	0.056227867
207	0xbddccb88	-0.10781008
208	0x3ce92866	0.028461646
209	0xbc9825b0	-0.018572658
210	0xbdda642d	-0.10663638
211	0xbe4445a0	-0.19167185
212	0x3dad3271	0.084568866
213	0x3e2e14fd	0.17000194
214	0x3dddf8cb	0.10838469
215	0xbd888274	-0.06665507
216	0xbdf75901	-0.12077523
217	0xbe1ec394	-0.15504295
218	0xbd2d87c3	-0.0423658
219	0xbe14bd7a	-0.14525405
220	0x3c05b97c	0.008161899
221	0x3e3db224	0.18524987
222	0xbd6a3c5e	-0.057186477
223	0xbcf6ccfa	-0.030127037
224	0x3e1a53e4	0.15071064
225	0xbe06ff8c	-0.13183421
226	0x3bd092b9	0.006365147
227	0x3dc28797	0.09498518
228	0xbdcd5d01	-0.10027505
229	0xbe1879bd	-0.1489019
230	0x3ddbec4f	0.10738432
231	0xbe5c1f57	-0.2149633
232	0x3e3edadd	0.18638177
233	0xbdbe3050	-0.09286559
234	0x3d056bd4	0.032573536
235	0x3de8c49c	0.11365625
236	0x3d233f40	0.03985524
237	0xbd87cf95	-0.0663139
238	0x3dddf98d	0.10838614
239	0x3e1a7c8d	0.15086575
240	0x3e8ec91b	0.27887806
241	0xbdff53f6	-0.12467186
242	0x3dd16cb9	0.10225815
243	0xbd5777c1	-0.05260444
244	0x3df8e941	0.12153865
245	0xbd391752	-0.045188256
246	0x3d943f8f	0.07238685
247	0x3d4338c6	0.047661565
248	0xbe4bb8c0	-0.19894695
249	0xbdb09c26	-0.08623533
250	0xbdf2efc9	-0.11862142
251	0xbbab9f5b	-0.0052375025
252	0xbdfbcd21	-0.122949846
253	0xbdf8b833	-0.12144508
254	0x3df36f8b	0.118865095
255	0x3d997fb7	0.07495063

linear3.bias f4 [10]
0	0x3d21222f	0.03933924
1	0x3d9f9f4e	0.07794057
2	0xbe18df22	-0.14928868
3	0xbc783e86	-0.0151516255
4	0xbdbe9f14	-0.093076855
5	0x3e7808d0	0.24222112
6	0xbddec04b	-0.10876521
7	0x3db0943a	0.08622022
8	0xbd05a596	-0.03262862
9	0xbd80c84c	-0.062882036
